…
     "start_time": "2023-12-24T05:50:39.428363",
     "status": "completed"
    },
    "tags": []
   },
   "outputs": [
    {
     "name": "stdout",
     "output_type": "stream",
     "text": [
      "Model: \"model\"\n",
      "_________________________________________________________________\n",
      " Layer (type)                Output Shape              Param #   \n",
      "=================================================================\n",
      " input (InputLayer)          [(None, 256, 64, 1)]      0         \n",
      "                                                                 \n",
      " conv1 (Conv2D)              (None, 256, 64, 64)       640       \n",
      "                                                                 \n",
      " batch_normalization (Batch  (None, 256, 64, 64)       256       \n",
      " Normalization)                                                  \n",
      "                                                                 \n",
      " activation (Activation)     (None, 256, 64, 64)       0         \n",
      "                                                                 \n",
      " conv2 (Conv2D)              (None, 256, 64, 64)       36928     \n",
      "                                                                 \n",
      " batch_normalization_1 (Bat  (None, 256, 64, 64)       256       \n",
      " chNormalization)                                                \n",
      "                                                                 \n",
      " activation_1 (Activation)   (None, 256, 64, 64)       0         \n",
      "                                                                 \n",
      " max1 (MaxPooling2D)         (None, 128, 32, 64)       0         \n",
      "                                                                 \n",
      " conv3 (Conv2D)              (None, 128, 32, 128)      73856     \n",
      "                                                                 \n",
      " batch_normalization_2 (Bat  (None, 128, 32, 128)      512       \n",
      " chNormalization)                                                \n",
      "                                                                 \n",
      " activation_2 (Activation)   (None, 128, 32, 128)      0         \n",
      "                                                                 \n",
      " conv4 (Conv2D)              (None, 128, 32, 128)      147584    \n",
      "                                                                 \n",
      " batch_normalization_3 (Bat  (None, 128, 32, 128)      512       \n",
      " chNormalization)                                                \n",
      "                                                                 \n",
      " activation_3 (Activation)   (None, 128, 32, 128)      0         \n",
      "                                                                 \n",
      " max2 (MaxPooling2D)         (None, 64, 16, 128)       0         \n",
      "                                                                 \n",
      " dropout (Dropout)           (None, 64, 16, 128)       0         \n",
      "                                                                 \n",
      " conv5 (Conv2D)              (None, 64, 16, 256)       295168    \n",
      "                                                                 \n",
      " batch_normalization_4 (Bat  (None, 64, 16, 256)       1024      \n",
      " chNormalization)                                                \n",
      "                                                                 \n",
      " activation_4 (Activation)   (None, 64, 16, 256)       0         \n",
      "                                                                 \n",
      " conv6 (Conv2D)              (None, 64, 16, 256)       590080    \n",
      "                                                                 \n",
      " batch_normalization_5 (Bat  (None, 64, 16, 256)       1024      \n",
      " chNormalization)                                                \n",
      "                                                                 \n",
      " activation_5 (Activation)   (None, 64, 16, 256)       0         \n",
      "                                                                 \n",
      " conv7 (Conv2D)              (None, 64, 16, 256)       590080    \n",
      "                                                                 \n",
      " batch_normalization_6 (Bat  (None, 64, 16, 256)       1024      \n",
      " chNormalization)                                                \n",
      "                                                                 \n",
      " activation_6 (Activation)   (None, 64, 16, 256)       0         \n",
      "                                                                 \n",
      " max3 (MaxPooling2D)         (None, 64, 8, 256)        0         \n",
      "                                                                 \n",
      " dropout_1 (Dropout)         (None, 64, 8, 256)        0         \n",
      "                                                                 \n",
      " conv8 (Conv2D)              (None, 64, 8, 512)        1180160   \n",
      "                                                                 \n",
      " batch_normalization_7 (Bat  (None, 64, 8, 512)        2048      \n",
      " chNormalization)                                                \n",
      "                                                                 \n",
      " activation_7 (Activation)   (None, 64, 8, 512)        0         \n",
      "                                                                 \n",
      " conv9 (Conv2D)              (None, 64, 8, 512)        2359808   \n",
      "                                                                 \n",
      " batch_normalization_8 (Bat  (None, 64, 8, 512)        2048      \n",
      " chNormalization)                                                \n",
      "                                                                 \n",
      " activation_8 (Activation)   (None, 64, 8, 512)        0         \n",
      "                                                                 \n",
      " conv10 (Conv2D)             (None, 64, 8, 512)        2359808   \n",
      "                                                                 \n",
      " batch_normalization_9 (Bat  (None, 64, 8, 512)        2048      \n",
      " chNormalization)                                                \n",
      "                                                                 \n",
      " activation_9 (Activation)   (None, 64, 8, 512)        0         \n",
      "                                                                 \n",
      " max4 (MaxPooling2D)         (None, 64, 4, 512)        0         \n",
      "                                                                 \n",
      " dropout_2 (Dropout)         (None, 64, 4, 512)        0         \n",
      "                                                                 \n",
      " conv11 (Conv2D)             (None, 64, 4, 512)        2359808   \n",
      "                                                                 \n",
      " batch_normalization_10 (Ba  (None, 64, 4, 512)        2048      \n",
      " tchNormalization)                                               \n",
      "                                                                 \n",
      " activation_10 (Activation)  (None, 64, 4, 512)        0         \n",
      "                                                                 \n",
      " conv12 (Conv2D)             (None, 64, 4, 512)        2359808   \n",
      "                                                                 \n",
      " batch_normalization_11 (Ba  (None, 64, 4, 512)        2048      \n",
      " tchNormalization)                                               \n",
      "                                                                 \n",
      " activation_11 (Activation)  (None, 64, 4, 512)        0         \n",
      "                                                                 \n",
      " conv13 (Conv2D)             (None, 64, 4, 512)        2359808   \n",
      "                                                                 \n",
      " batch_normalization_12 (Ba  (None, 64, 4, 512)        2048      \n",
      " tchNormalization)                                               \n",
      "                                                                 \n",
      " activation_12 (Activation)  (None, 64, 4, 512)        0         \n",
      "                                                                 \n",
      " max5 (MaxPooling2D)         (None, 64, 2, 512)        0         \n",
      "                                                                 \n",
      " dropout_3 (Dropout)         (None, 64, 2, 512)        0         \n",
      "                                                                 \n",
      " reshape (Reshape)           (None, 64, 1024)          0         \n",
      "                                                                 \n",
      " dense1 (Dense)              (None, 64, 64)            65600     \n",
      "                                                                 \n",
      " lstm1 (Bidirectional)       (None, 64, 512)           657408    \n",
      "                                                                 \n",
      " lstm2 (Bidirectional)       (None, 64, 512)           1574912   \n",
      "                                                                 \n",
      " dense2 (Dense)              (None, 64, 188)           96444     \n",
      "                                                                 \n",
      " softmax (Activation)        (None, 64, 188)           0         \n",
      "                                                                 \n",
      "=================================================================\n",
      "Total params: 17124796 (65.33 MB)\n",
      "Trainable params: 17116348 (65.29 MB)\n",
      "Non-trainable params: 8448 (33.00 KB)\n",
      "_________________________________________________________________\n"
     ]
    }
   ],
…
